models/surrogate_model.pt (torch, 591312 bytes, 4 tensors)

classifier.0.weight f4 [256, 512]
0.14923894 -0.024131404 0.023291674 0.15876926 -0.068792544 0.0354911 -0.12706593 -0.17332768
-0.021103863 -0.024258846 -0.13768695 -0.059945468 -0.06563838 -0.045159884 0.0042865616 0.01601729
0.17829347 0.21571122 0.12572472 0.17986661 -0.18441232 -0.14045338 0.05825573 -0.02411839
0.030113159 -0.107410654 0.007523636 0.23392275 0.03317735 0.22957483 0.080829404 0.004400391
-0.14379372 -0.097542346 -0.13591273 -0.24083345 -0.039095446 -0.10718627 0.12512481 -0.12577187
-0.143898 -0.001758809 -0.20163393 -0.0778723 -0.02487987 -0.053804707 0.08128925 -0.15304416
0.2391566 0.13116576 0.074426405 -0.100578226 -0.014115223 0.098917246 -0.17846027 -0.13701333
-0.02332289 -0.03941989 0.08808 0.1393118 -0.1939308 -0.015527853 -0.050652225 0.20980826
0.071310595 0.13451514 0.102296814 -0.0017440321 0.09955869 -0.1851403 -0.0724461 0.12504931
0.08358581 0.14604303 -0.20120625 -0.046291366 -0.06307939 -0.24192503 0.12912284 0.117116906
0.109356105 -0.2752833 0.18609202 0.110685736 0.23265144 -0.014391891 -0.19794215 -0.1073971
0.032034617 0.17369838 0.1439992 -0.03567191 0.18373603 0.023530679 -0.070316195 0.05951435
-0.0091141425 0.04849913 0.15728158 0.15703969 -0.057505358 0.17471804 -0.036670905 0.033536386
0.19612288 0.13987884 -0.21087953 0.008334114 0.09537552 0.04410078 0.068436615 -0.13157833
-0.073088445 0.0671958 -0.2505621 0.06737976 0.024049902 -0.15711838 0.13984425 0.19569926
0.20135233 0.20354076 -0.015939064 -0.13344976 0.15270184 -0.004940774 0.12523997 -0.087794304
-0.2068019 0.09717977 -0.12476971 0.12630263 -0.095138505 0.12945941 -0.07233239 -0.020432897
-0.2106952 -0.24892135 0.14452918 0.0640937 -0.072635315 0.1846833 -0.09384244 -0.0024808631
0.12256918 0.06393178 -0.048394397 -0.15229341 -0.0041635516 0.07133274 0.100452006 0.206161
0.27948272 0.2579001 0.0037680194 0.08424943 0.08004497 -0.11541022 -0.138438 -0.08842656
0.12621592 0.060227696 0.028950667 -0.036654677 0.071637616 -0.015484905 0.12487782 -0.02830747
-0.08345242 -0.084235206 -0.12840606 0.15404204 0.047954448 0.11971081 0.02990926 0.002559489
0.087198 0.0331599 0.21161047 -0.05802168 0.008262837 0.079808824 -0.10123949 -0.06486827
-0.06436924 -0.015689136 -0.007897053 0.054887347 0.0018916257 0.12060364 -0.11784216 -0.06119463
-0.03208723 -0.05701014 0.04889696 0.14187405 -0.104265235 0.020902885 0.22365744 0.044346176
0.09578688 0.0846267 -0.0080670575 0.19699287 0.24050286 -0.02035953 0.0072785164 0.11306059
-0.049881738 0.17636608 -0.1323311 0.07589451 0.071079776 0.05416484 -0.01746003 0.09593329
0.094042405 0.13667263 -0.027392076 0.1481911 0.13305697 0.08357916 0.03969918 -0.06562929
-0.11649107 0.04876887 0.10946051 0.10330589 0.06059795 0.12129547 0.20507415 -0.20907722
0.07703095 -0.059455283 -0.12964076 -0.10088743 -0.084892794 0.112794556 -0.068123 -0.02915522
0.1531669 -0.013868405 -0.015280235 0.020808328 0.027428553 0.10469668 -0.12143722 0.13608721
-0.04807999 -0.030998461 -0.083342 -0.1292669 0.18548764 0.08497039 -0.12462444 -0.025084918
00000000: 18d2 183e 39af c5bc 2ece be3c 6994 223e
00000010: 1be3 8cbd 1e5f 113d 921d 02be d07c 31be
00000020: 02e2 acbc 7dba c6bc cffd 0cbe 6189 75bd
00000030: 6a6d 86bd 92f9 38bd 4976 8c3b b136 833c
00000040: 9092 363e 67e3 5c3e fbbd 003e f42e 383e
00000050: 95d6 3cbe 03d3 0fbe 8f9d 6e3d ee93 c5bc
00000060: dfaf f63c 1efa dbbd d588 f63b 7289 6f3e
00000070: f9e4 073d aa15 6b3e e389 a53d 2831 903b
00000080: a93e 13be 48c4 c7bd b52c 0bbe 0b9d 76be
00000090: 8c22 20bd 7a84 dbbd b820 003e 57ca 00be
000000a0: ff59 13be d687 e6ba 2079 4ebe 837b 9fbd
000000b0: ded0 cbbc 5362 5cbd fa7a a63d 9cb7 1cbe
000000c0: 78e5 743e 5150 063e df6c 983d f5fb cdbd
000000d0: 8943 67bc 2095 ca3d 4abe 36be 394d 0cbe
000000e0: a50f bfbc c076 21bd 4963 b43d c1a7 0e3e
000000f0: cc95 46be 8968 7ebc b578 4fbd fad7 563e
00000100: 4a0b 923d 56be 093e fe80 d13d 0298 e4ba
00000110: 6de5 cb3d 6b95 3dbe 9f5e 94bd ed0c 003e
00000120: 0a2f ab3d 4e8c 153e 0309 4ebe 049c 3dbd
00000130: c42f 81bd 32bb 77be c738 043e fdda ef3d
00000140: 18f6 df3d eff1 8cbe e88e 3e3e 34af e23d
00000150: 2e3c 6e3e f7cb 6bbc 59b1 4abe 03f3 dbbd
00000160: bb36 033d fddd 313e 8774 133e b51c 12bd
00000170: 4c25 3c3e 69c3 c03c f001 90bd 52c5 733d
00000180: 7c53 15bc 06a7 463d 6c0e 213e 03cf 203e
00000190: bd8a 6bbd 49e9 323e 3b34 16bd 735d 093d
000001a0: 70d4 483e 663c 0f3e cef0 57be cf8b 083c
000001b0: 3e54 c33d 05a3 343d 7f28 8c3d 78bc 06be
000001c0: 65af 95bd f49d 893d ad49 80be 66fe 893d
000001d0: 4d04 c53c a4e3 20be 5533 0f3e 6365 483e
000001e0: 4e2f 4e3e fd6c 503e a492 82bc 0ea7 08be
000001f0: df5d 1c3e 37e6 a1bb e83e 003e 80cd b3bd
00000200: e1c3 53be 3006 c73d 4387 ffbd 7a55 013e
00000210: fad7 c2bd 0291 043e 0123 94bd e462 a7bc
00000220: 7cc0 57be 3de5 7ebe 75ff 133e 8f43 833d
00000230: d3c1 94bd 9e1d 3d3e 7730 c0bd fa95 22bb
00000240: 8d05 fb3d aaee 823d 3439 46bd cef2 1bbe
00000250: 676e 88bb e616 923d c8b9 cd3d df1b 533e
00000260: 5c18 8f3e 7b0b 843e e0f0 763b f78a ac3d
00000270: 9eee a33d 325c ecbd b1c2 0dbe fc18 b5bd
00000280: bf3e 013e 51b1 763d f329 ed3c 3723 16bd
00000290: beb6 923d 66b4 7dbc f1bf ff3d 11e5 e7bc
000002a0: 1ae9 aabd 8283 acbd e17c 03be 32bd 1d3e
000002b0: e26b 443d f12a f53d 4404 f53c 1abd 273b
000002c0: dd94 b23d add2 073d 6ab0 583e 24a8 6dbd
000002d0: da60 073c cf72 a33d a656 cfbd a8d9 84bd
000002e0: 05d4 83bd 8186 80bc a462 01bc 8ed1 603d
000002f0: 6df0 f73a 0bff f63d 3b57 f1bd 38a7 7abd
00000300: e66d 03bd 7783 69bd 2e48 483d 6e47 113e
00000310: 0389 d5bd 873c ab3c 7506 653e 56a4 353d
00000320: e92b c43d c350 ad3d b12b 04bc 80b8 493e
00000330: 6246 763e 07c9 a6bc 9f80 ee3b 508c e73d
00000340: cb50 4cbd 4f99 343e ce81 07be 956e 9b3d
00000350: 4692 913d f4db 5d3d 5608 8fbc ac78 c43d
00000360: 4e99 c03d e9f3 0b3e 5965 e0bc 68bf 173e
00000370: 1640 083e 8d2b ab3d 9b9b 223d a668 86bd
00000380: df92 eebd dec1 473d d52c e03d 0a92 d33d
00000390: 8e35 783d c269 f83d f5fe 513e 5718 56be
000003a0: 67c2 9d3d 6287 73bd 8cc0 04be 129e cebd
000003b0: 46dc adbd d500 e73d 1284 8bbd eed6 eebc
000003c0: c9d7 1c3e 4e38 63bc f359 7abc 3a76 aa3c
000003d0: d8b1 e03c 376b d63d 14b4 f8bd 725a 0b3e
000003e0: 86ef 44bd 7cf0 fdbc 36af aabd 8b5e 04be
000003f0: 79f0 3d3e f504 ae3d 193b ffbd e37e cdbc

classifier.0.bias f4 [256]
0.15808162 0.079744756 0.1864252 0.08219615 0.20310745 0.16696909 0.20351632 0.07750466
0.21936536 0.10587916 0.13461305 0.08085823 0.19628341 0.15297408 0.12204833 0.115896516
0.13718879 0.05982798 0.15172362 0.14639707 0.14361532 0.18873082 0.1500615 0.25217006
0.08312289 0.14382578 0.14263435 0.08706721 0.08899748 0.1680669 0.07809849 0.21755652
0.17884883 0.15630722 0.21121453 0.21631534 0.15622029 0.10981712 0.13215241 0.1471257
0.08128254 0.070446774 0.14916664 0.22239009 0.11423315 0.22438292 0.107974716 0.11378093
0.22022288 0.177546 0.27051315 0.12099304 0.19914088 0.09737129 0.19586767 0.19654885
0.2001245 0.16490155 0.15531099 0.15406385 0.1611305 0.09645994 0.14292821 0.15553305
0.10223692 0.16154452 0.23320335 0.21083754 0.18117248 0.13479264 0.07396445 0.18624735
0.10927045 0.08975519 0.23625897 0.14094381 0.22722946 0.19553077 0.09322629 0.09206673
0.09286382 0.24393284 0.14690846 0.2540829 0.09468787 0.123747855 0.119153306 0.052437276
0.22870426 0.054527964 0.16055167 0.1229925 0.25735387 0.13705005 0.18224196 0.16115145
0.1958726 0.21843962 0.18316212 0.17266007 0.1686216 0.16148482 0.1525995 0.17008965
0.12858702 0.11873908 0.13891868 0.17839998 0.0883044 0.15227278 0.19764534 0.1133948
0.10546648 0.13353145 0.11116647 0.11081511 0.21184404 0.118916646 0.24566859 0.0888723
0.22273183 0.08792775 0.14875266 0.17289376 0.17890942 0.26931503 0.2157457 0.22174643
0.17705661 0.105468445 0.196938 0.10461379 0.12053762 0.12298949 0.22032335 0.13370901
0.22581632 0.0843625 0.030641703 0.14769939 0.16595481 0.18095681 0.21232703 0.14086035
0.10306661 0.17824315 0.13673119 0.1657635 0.09270466 0.10965616 0.23325083 0.16067135
0.16944593 0.14802724 0.14132352 0.1882409 0.14325437 0.16947417 0.21772659 0.18392318
-0.054740034 0.15345398 0.1308624 0.03665029 0.20404066 0.12767081 0.15626524 0.12925872
0.06433831 0.15596242 0.16086924 0.24703862 0.09056529 0.16168708 0.0358146 0.14847283
0.17466827 0.25369963 0.19919789 0.1665141 0.1731821 0.18896349 0.09650826 0.06204551
0.14989947 0.11511771 0.13898812 0.1925972 0.06180629 0.21142773 0.13559937 0.09554751
0.17321283 0.19422151 0.10936498 0.20085824 0.241138 0.15232119 0.17559437 0.23272939
0.19102578 0.14768349 0.12353685 0.11669681 0.11310187 0.22081763 0.21062249 0.13536057
0.09063122 0.17014101 0.16502772 0.050851326 0.15794618 0.18300755 0.20805305 0.19180179
0.12588556 0.1124683 0.24877211 0.10382558 0.26933694 0.2339112 0.1514945 0.11601252
0.19047083 0.14574146 0.1339119 0.1536174 0.20032035 0.12351084 0.18225943 0.160612
0.16045797 0.065374225 0.14879262 0.05739752 0.21400338 0.14124386 0.12142057 0.194343
0.10802122 0.10613069 0.075535 0.15754752 0.22061671 0.09720813 0.13162243 0.15205862
0.1276802 0.14796926 0.18914036 0.12248205 0.20034067 0.20411763 0.22139448 0.124290876
00000000: 26e0 213e 3851 a33d 3fe6 3e3e 7556 a83d
00000010: 66fb 4f3e f2f9 2a3e 9566 503e c3ba 9e3d
00000020: 50a1 603e 2cd7 d83d 01d8 093e 0099 a53d
00000030: 85fe 483e 3da5 1c3e 7af4 f93d 275b ed3d
00000040: 387b 0c3e 2f0e 753d 705d 1b3e 1de9 153e
00000050: e50f 133e a742 413e b9a9 193e 6f1c 813e
00000060: 553c aa3d 1147 133e bd0e 123e 4b50 b23d
00000070: 5044 b63d bb19 2c3e 1af2 9f3d 23c7 5e3e
00000080: 2624 373e 000f 203e 9f48 583e c581 5d3e
00000090: 36f8 1f3e cce7 e03d f652 073e 1fa8 163e
000000a0: 7677 a63d 6646 903d 24bf 183e 3aba 633e
000000b0: 12f3 e93d a3c4 653e d921 dd3d fa05 e93d
000000c0: 1b82 613e 9ece 353e b380 8a3e 33cb f73d
000000d0: 96eb 4b3e 996a c73d 8991 483e 1a44 493e
000000e0: 70ed 4c3e f4db 283e d809 1f3e eac2 1d3e
000000f0: 65ff 243e ca8c c53d c65b 123e 0e44 1f3e
00000100: 9761 d13d ed6b 253e dccc 6e3e cce5 573e
00000110: 4785 393e 1507 0a3e ac7a 973d a0b7 3e3e
00000120: 30c9 df3d 92d1 b73d dfed 713e 9353 103e
00000130: d7ae 683e 3839 483e 6ded be3d 7b8d bc3d
00000140: 632f be3d 88c9 793e 2c6f 163e 2717 823e
00000150: b7eb c13d 846f fd3d a606 f43d 78c8 563d
00000160: 7331 6a3e b758 5f3d a867 243e 7ee3 fb3d
00000170: e3c3 833e d956 0c3e a39d 3a3e e304 253e
00000180: d492 483e a3ae 5f3e da8e 3b3e cdcd 303e
00000190: 24ab 2c3e 475c 253e 0b43 1c3e fb2b 2e3e
000001a0: 51ac 033e 7a2d f33d b340 0e3e 7cae 363e
000001b0: f0d8 b43d 65ed 1b3e 8a63 4a3e 883b e83d
000001c0: cffe d73d 78bc 083e 3fab e33d 08f3 e23d
000001d0: a5ed 583e 928a f33d 8c90 7b3e ae02 b63d
000001e0: d013 643e 7713 b43d 9e52 183e 100b 313e
000001f0: 0834 373e a9e3 893e 71ec 5c3e 7f11 633e
00000200: 544e 353e d7ff d73d 1daa 493e c13f d63d
00000210: 6ddc f63d eae1 fb3d 729c 613e 04eb 083e
00000220: 653c 673e 3fc6 ac3d 4f04 fb3c 823e 173e
00000230: 0ff0 293e be4c 393e 426c 593e b23d 103e
00000240: 9614 d33d 5f85 363e 4303 0c3e e8bd 293e
00000250: f1db bd3d 6993 e03d 4ed9 6e3e 0887 243e
00000260: 3c83 2d3e 7494 173e 1db7 103e 39c2 403e
00000270: 46b1 123e a38a 2d3e b8f3 5e3e 5c56 3c3e
00000280: 1637 60bd 0a23 1d3e cb00 063e 9d1e 163d
00000290: 09f0 503e 23bc 023e ff03 203e 665c 043e
000002a0: cec3 833d 9db4 1f3e e8ba 243e b1f7 7c3e
000002b0: 4b7a b93d 4c91 253e 54b2 123d 4309 183e
000002c0: 3ddc 323e ebe4 813e 88fa 4b3e ac82 2a3e
000002d0: a656 313e a57f 413e 1fa6 c53d 6f23 7e3d
000002e0: 3f7f 193e d5c2 eb3d e752 0e3e 3338 453e
000002f0: 9828 7d3d 8380 583e 90da 0a3e 6aae c33d
00000300: b45e 313e 01e2 463e bffa df3d c8ad 4d3e
00000310: e1ec 763e 16fa 1b3e 03cf 333e 9d50 6e3e
00000320: 439c 433e 573a 173e e300 fd3d bdfe ee3d
00000330: f4a1 e73d 041e 623e 6cad 573e f69b 0a3e
00000340: dc9c b93d 7239 2e3e 07fd 283e 7b49 503d
00000350: a5bc 213e 5566 3b3e dc0b 553e b067 443e
00000360: 25e8 003e c855 e63d 1ebe 7e3e 81a2 d43d
00000370: 88e6 893e 6b86 6f3e 6021 1b3e f997 ed3d
00000380: c90a 433e 403d 153e 3320 093e e14d 1d3e
00000390: c720 4d3e 40f3 fc3d 37a2 3a3e 7977 243e
000003a0: 184f 243e ece2 853d 185d 183e a919 6b3d
000003b0: b423 5b3e 3ba2 103e 59ab f83d da01 473e
000003c0: 3b3a dd3d 0c5b d93d 18b2 9a3d 2354 213e
000003d0: 59e9 613e 0e15 c73d 08c8 063e 41b5 1b3e
000003e0: 99be 023e 4185 173e 03ae 413e ded7 fa3d
000003f0: 1b26 4d3e 3604 513e 3cb5 623e 378c fe3d

classifier.3.weight f4 [62, 256]
0.059392035 0.03894502 0.046369392 -0.15614903 -0.01145164 0.08107847 -0.106936395 -0.022619145
-0.2772042 0.007937145 -0.29958203 -0.050531607 0.10588569 -0.2578179 0.12000549 -0.029070934
0.025586102 0.06762999 0.058551963 -0.03558819 0.08412953 -0.19928284 0.023759628 0.07823518
-0.2590139 0.030741591 -0.17242172 0.03655776 0.0075139483 0.00092998677 0.051112093 -0.12390157
-0.20275316 -0.035579633 -0.23441848 -0.25286764 0.12792416 0.0702876 -0.1452583 0.1608103
0.08153444 0.068221346 0.027830346 0.08784631 -0.14390922 0.10891566 -0.0013540748 0.025883483
-0.25339508 0.046718948 -0.29250947 -0.120825514 0.08391243 0.11444468 -0.20871814 -0.20618562
-0.345574 -0.039309062 -0.2100249 0.09311204 0.031770922 -0.06093698 -0.025695082 -0.045175876
0.12404722 -0.03524264 -0.01744652 0.012629255 0.0011830204 -0.24304353 -0.09450134 -0.20365144
-0.03345638 0.11976485 -0.30377442 0.08578878 -0.24904597 -0.032583877 0.008069923 0.091631725
-0.21866862 -0.070640884 -0.2009244 -0.16113251 -0.025469944 0.119306624 -0.012792439 0.019811872
-0.18555756 0.023082206 -0.14274375 -0.20388605 -0.13274065 -0.08311756 0.00072732114 -0.18919247
-0.11308725 -0.00043687256 -0.18771176 -0.011931938 -0.09552658 -0.022670649 -0.26770982 0.016684681
-0.34816864 -0.09233416 -0.2480715 -0.16202618 0.047719702 -0.15830824 -0.12818846 0.089574605
0.056859866 -0.2623625 0.14688915 0.09419908 -0.22692133 -0.26188192 -0.08627885 0.0983149
-0.20749561 0.015544143 -0.0022730734 -0.11732738 0.041817065 0.11539861 -0.17148949 -0.055939384
0.027242653 0.111180216 -0.24349177 0.062377483 0.09437207 -0.13650963 -0.310837 -0.11066931
-0.20341226 0.051158886 -0.011075181 -0.1949363 0.040400922 0.013602998 -0.30764478 -0.023956627
0.11360549 -0.026801797 0.024563223 0.07261656 -0.15035683 0.027144013 -0.2506789 -0.23029989
-0.16877498 0.10404371 0.038164873 -0.2756222 -0.17383465 0.070708044 -0.19738413 -0.02403297
-0.05518365 0.13003285 0.09071565 -0.056568 -0.2952316 -0.07564474 0.030303799 -0.07506782
-0.03226525 -0.14870732 0.05304975 -0.29266632 0.031796034 -0.26021445 0.033297453 -0.02810435
0.077684104 -0.044873714 -0.08775951 0.03077054 -0.06893458 -0.25502756 0.10086946 0.09547323
-0.10911869 -0.010378977 -0.045341246 -0.2517149 0.027559591 -0.21124096 -0.28668493 0.031909626
-0.08314535 -0.2563829 0.10186412 0.025643043 0.03209094 -0.313456 -0.21677339 -0.15919678
-0.018283343 0.049382415 0.093162246 -0.052076243 0.13238917 0.14350712 0.037904896 -0.14980614
-0.06263621 -0.024614157 -0.25005025 0.0932306 -0.34360912 0.09940612 -0.29960045 -0.26067945
-0.33412513 -0.21583438 0.05336054 -0.058348805 0.042432845 -0.24926981 -0.008149882 -0.3124156
-0.10006771 -0.09038909 0.028932746 -0.22624256 -0.22964063 -0.12505424 -0.08024133 0.052028567
0.053615376 0.068109475 0.124332175 -0.047048513 0.037320945 0.05681287 -0.15391208 0.10634715
-0.10523311 -0.2383037 -0.021465885 0.10058419 0.04502696 -0.01705358 -0.012155196 0.05860627
0.09373205 -0.03252738 -0.2790955 0.07881376 -0.053542066 -0.22872674 -0.19213307 -0.0011918268
00000000: 1045 733d d084 1f3d d5ed 3d3d 88e5 1fbe
00000010: a99f 3bbc 780c a63d 7801 dbbd c94b b9bc
00000020: b5ed 8dbe cd0a 023c d162 99be 3bfa 4ebd
00000030: 99da d83d b500 84be 70c5 f53d 2b26 eebc
00000040: f299 d13c 9881 8a3d 2fd4 6f3d ecc4 11bd
00000050: 1a4c ac3d cd10 4cbe 8da3 c23c c439 a03d
00000060: 789d 84be cad5 fb3c 528f 30be 97bd 153d
00000070: 9137 f63b 5bca 733a ea5a 513d 1bc0 fdbd
00000080: 869e 4fbe f3bb 11bd 660b 70be de77 81be
00000090: 8dfe 023e f2f2 8f3d 97be 14be 75ab 243e
000000a0: 87fb a63d a2b7 8b3d 77fc e33c c4e8 b33d
000000b0: f05c 13be 2c0f df3d 367b b1ba 9909 d43c
000000c0: 00bd 81be 5e5c 3f3d cdc3 95be 5e73 f7bd
000000d0: 48da ab3d f961 ea3d 35ba 55be 5322 53be
000000e0: 13ef b0be 8a02 21bd c410 57be 86b1 be3d
000000f0: 3a22 023d 0e99 79bd 7e7e d2bc 570a 39bd
00000100: 780c fe3d 965a 10bd 01ec 8ebc efea 4e3c
00000110: 940f 9b3a 67e0 78be eb89 c1bd 018a 50be
00000120: 8f09 09bd 4647 f53d 5288 9bbe 07b2 af3d
00000130: e805 7fbe ac76 05bd b637 043c 6aa9 bb3d
00000140: abea 5fbe 2bac 90bd 20bf 4dbe ecff 24be
00000150: 58a6 d0bc 0857 f43d 6197 51bc 824c a23c
00000160: cd02 3ebe e516 bd3c 6b2b 12be 81c7 50be
00000170: 2aed 07be 8a39 aabd b2a9 3e3a acbb 41be
00000180: 4a9a e7bd 0b0c e5b9 8337 40be 2d7e 43bc
00000190: 71a3 c3bd ccb7 b9bc 4311 89be 50ae 883c
000001a0: 2943 b2be b119 bdbd 7506 7ebe 31ea 25be
000001b0: bc75 433d 8e1b 22be d643 03be e472 b73d
000001c0: e4e5 683d 6154 86be 1c6a 163e 72eb c03d
000001d0: 115e 68be 6315 86be f7b2 b0bd 5359 c93d
000001e0: bb79 54be dcac 7e3c d8f7 14bb 5649 f0bd
000001f0: 5f48 2b3d 1b56 ec3d f19a 2fbe b220 65bd
00000200: fc2b df3c 74b2 e33d e855 79be 887f 7f3d
00000210: 2546 c13d 2ec9 0bbe 0726 9fbe 97a6 e2bd
00000220: 4e4b 50be fb8b 513d ad74 35bc 629d 47be
00000230: 707b 253d 1cdf 5e3c 9e83 9dbe b040 c4bc
00000240: ffa9 e83d 718f dbbc d038 c93c feb7 943d
00000250: 24f7 19be 1f5d de3c fc58 80be bcd3 6bbe
00000260: 59d3 2cbe de14 d53d c552 1c3d 5a1e 8dbe
00000270: b601 32be 61cf 903d 111f 4abe cbe0 c4bc
00000280: 4008 62bd 5527 053e 20c9 b93d d9b3 67bd
00000290: 9928 97be a1eb 9abd ac3f f83c 28bd 99bd
000002a0: 9128 04bd bb46 18be b24a 593d 5cd8 95be
000002b0: 8f3c 023d d43a 85be e962 083d 183b e6bc
000002c0: d818 9f3d 80cd 37bd 42bb b3bd 8012 fc3c
000002d0: 932d 8dbd f992 82be a694 ce3d 7887 c33d
000002e0: 9f79 dfbd 960c 2abc beb7 39bd c6e0 80be
000002f0: a7c4 e13c 8d4f 58be 5ec8 92be abb3 023d
00000300: 1c48 aabd 9f44 83be 239e d03d 5c11 d23c
00000310: ca71 033d 4e7d a0be d8f9 5dbe 7b04 23be
00000320: f3c6 95bc 3745 4a3d d9cb be3d e64d 55bd
00000330: 0791 073e 88f3 123e 2a42 1b3d c866 19be
00000340: 6a47 80bd a1a3 c9bc 9606 80be afef be3d
00000350: 89ed afbe 7095 cb3d 3b65 99be c777 85be
00000360: 7312 abbe b003 5dbe 9590 5a3d 28ff 6ebd
00000370: 10ce 2d3d 9640 7fbe 1587 05bc f0f4 9fbe
00000380: 4df0 ccbd ea1d b9bd 5e04 ed3c 21ac 67be
00000390: ea26 6bbe 380e 00be 9155 a4bd e81b 553d
000003a0: cc9b 5b3d fb7c 8b3d dea1 fe3d f1b5 40bd
000003b0: d9dd 183d 9db4 683d 219b 1dbe 89cc d93d
000003c0: 7584 d7bd e305 74be 39d9 afbc 15ff cd3d
000003d0: 316e 383d f3b3 8bbc 9626 47bc 210d 703d
000003e0: 97f6 bf3d 6e3b 05bd 9be5 8ebe 1c69 a13d
000003f0: ed4e 5bbd 5837 6abe 88be 44be 1237 9cba

classifier.3.bias f4 [62]
-0.08410973 -0.058022868 0.022806745 0.057743754 0.003821167 -0.028684413 0.019724438 -0.00088136306
-0.013391018 0.035375163 0.031096049 0.019977516 -0.055414457 0.07388045 0.06399836 -0.034037214
0.026183052 -0.015331827 0.024618836 0.087184645 0.009460807 0.013010096 0.03983997 0.055885363
-0.07950376 -0.020520605 -0.021454873 0.032965615 -0.024798702 -0.115745306 -0.092113934 -0.015223923
-0.019166775 0.040768977 0.06290996 -0.026970712 0.041622046 -0.048667107 -0.06464904 -0.035548653
0.008323586 0.06231002 -0.057979237 -0.06728128 0.0903081 -0.062710285 0.044255253 0.066876814
0.02668718 0.01733653 0.035261966 -0.031275544 -0.038151946 -0.018759508 -0.08366218 0.020896792
-0.020072363 -0.092563495 -0.045997437 0.016682932 -0.04868631 -0.029037714
00000000: b941 acbd 63a9 6dbd 36d5 ba3c b784 6c3d
00000010: 8b6c 7a3b 93fb eabc 2595 a13c 460b 67ba
00000020: 0066 5bbc 8ce5 103d 24bd fe3c e3a7 a33c
00000030: 45fa 62bd a24e 973d 9211 833d 9b6a 0bbd
00000040: d77d d63c 5832 7bbc 71ad c93c dd8d b23d
00000050: 8001 1b3c 4c28 553c 3d2f 233d 0de8 643d
00000060: ded2 a2bd d41a a8bc 21c2 afbc f406 073d
00000070: a626 cbbc e00b edbd 3ba6 bcbd c36d 79bc
00000080: a403 9dbc 5ffd 263d f0d6 803d aff1 dcbc
00000090: e17b 2a3d 2957 47bd b766 84bd 779b 11bd
000000a0: a65f 083c cb38 7f3d a37b 6dbd c5ca 89bd
000000b0: 74f3 b83d 406e 80bd ff44 353d b6f6 883d
000000c0: 139f da3c 5705 8e3c da6e 103d c91a 00bd
000000d0: 3745 1cbd 8aad 99bc 1457 abbd c02f ab3c
000000e0: cc6e a4bc ee91 bdbd cf67 3cbd a5aa 883c
000000f0: 4c6b 47bd 80e0 edbc
